vision/ball_classifier/model.bin (torch, 49199 bytes, 10 tensors)

conv1.weight f4 [6, 3, 5, 5]
-0.06808121 -0.046374485 0.043061092 -0.1319936 -0.13642228 -0.10328022 0.0483546 -0.09384864
-0.030881999 0.040173315 -0.035150375 0.018963974 -0.110550806 -0.028615642 -0.116724014 0.03271685
-0.061855584 -0.038529586 -0.031552304 0.008900958 -0.02330804 -0.08589932 -0.13696918 -0.14467487
0.062437616 -0.091360345 -0.11353674 0.026201185 0.05550963 -0.10026337 -0.0077206995 -0.06621008
-0.046941396 -0.045984764 -0.0419651 0.004557245 -0.12645711 -0.06926127 0.03771093 0.028771738
-0.013753968 0.0024134363 -0.0017475564 -0.019909924 -0.080988094 -0.06579325 -0.09761338 -0.1118773
0.00317999 -0.026301078 0.007815752 0.010282775 -0.037865933 0.014160397 -0.06287446 0.11490572
0.021324985 0.14616142 0.08626669 0.103774756 0.0054274583 0.058483597 0.096098304 -0.0029657544
-0.038498387 0.122236565 0.080526665 -0.0025120021 0.006740736 0.026320197 0.04849212 0.049962178
-0.030966967 0.07593542 0.102390826 -0.08779974 0.075588636 0.030974645 -0.09828476 -0.11694518
0.03733238 0.084035195 -0.094781406 0.1153197 0.06703414 -0.08068476 -0.023038639 0.061508797
0.11548761 -0.053958673 -0.12778407 0.05072142 0.053217873 0.01814097 0.101220146 0.058167093
0.07049073 -0.024264801 0.0990626 -0.017061196 -0.040295996 -0.040051088 -0.0150680505 0.024193963
-0.00902318 -0.026206087 0.015724696 -0.0047428 0.110869735 0.098544255 -0.042924598 0.1004682
0.15503313 -0.007136425 -0.009359563 0.009273259 0.09253126 0.0063481038 0.14989081 -0.07411246
0.0056029647 0.05687078 0.013960513 0.03193717 -0.047840856 -0.011881481 -0.038907185 -0.047992654
0.096597224 0.116465196 -0.06284008 0.00078839756 0.08768623 0.04495209 0.065301366 -0.05211226
-0.061626323 0.021647828 0.14370516 0.098003864 0.007441686 0.15620442 0.08389788 0.11784918
0.0951955 0.06822487 0.017142147 0.14884238 0.089194424 0.11710986 -0.06290377 -0.032254577
0.06372899 0.063069895 -0.0387407 0.083547264 0.03276908 -0.10614649 0.10192519 0.011370413
-0.07205479 0.08097253 -0.07387197 0.10854256 0.0654301 -0.05573579 -0.10769269 0.051770058
0.016300144 0.09993771 0.058681764 0.065670885 -0.105163716 0.07744567 -0.06886875 0.05894288
0.1068572 0.1522728 0.05418761 0.03565347 0.039960142 -0.007444501 -0.038701694 0.079657964
0.044847254 0.14726105 0.030814406 0.061705213 0.09407093 -0.024169201 0.044188052 -0.009602642
0.15347579 0.06208193 0.024328204 0.12257115 0.076079436 0.02473282 -0.052185684 0.034793627
-0.0014687642 -0.01358984 0.11455345 0.14466637 0.022030804 -0.06089063 -0.05122595 -0.006198964
0.102322794 0.08087891 0.105995566 0.07491757 0.0413236 0.1371297 -0.015717821 0.07234721
0.04059194 -0.040159166 0.030463785 0.102394626 0.112425305 0.08180362 0.15210485 0.0232889
0.14518072 -0.15703088 0.04225009 -0.11101711 0.05829475 0.033123698 -0.09270672 -0.15364315
-0.08603159 0.020334031 0.12668274 -0.12649837 -0.020690471 -0.14294438 -0.048052683 -0.0014248524
-0.093003355 0.054031655 -0.08218868 0.079134114 -0.062337436 0.049169254 0.035862505 -0.12685423
-0.07982482 0.10898092 0.07541306 0.06534026 0.0740704 0.056680053 -0.05771031 0.009922179
00000000: 296e 8bbd 2cf3 3dbd d460 303d 5529 07be
00000010: 48b2 0bbe 9484 d3bd 790f 463d b733 c0bd
00000020: 3ffc fcbc c68c 243d d7f9 0fbd 565a 9b3c
00000030: 7668 e2bd 5a6b eabc 000d efbd 1b02 063d
00000040: 485c 7dbd 33d1 1dbd fd3c 01bd 53d5 113c
00000050: 81f0 bebc fceb afbd a641 0cbe a625 14be
00000060: 96be 7f3d 221b bbbd f385 e8bd dea3 d63c
00000070: 115e 633d e256 cdbd ecfd fcbb 2799 87bd
00000080: 9f45 40bd 855a 3cbd 99e3 2bbd f154 953b
00000090: f97d 01be dad8 8dbd c776 1a3d b5b2 eb3c
000000a0: 5358 61bc be2a 1e3b 430e e5ba 231a a3bc
000000b0: 16dd a5bd 9dbe 86bd 86e9 c7bd ed1f e5bd
000000c0: 6167 503b 5c75 d7bc a40d 003c 1679 283c
000000d0: 4f19 1bbd 0301 683c 53c4 80bd b153 eb3d
000000e0: bcb1 ae3c 57ab 153e 97ac b03d dc87 d43d
000000f0: d2d8 b13b 7f8c 6f3d 30cf c43d 1a5d 42bb
00000100: 7cb0 1dbd 2a57 fa3d 2aeb a43d 67a0 24bb
00000110: 64e1 dc3b 749d d73c ac9f 463d 24a5 4c3d
00000120: 70ae fdbc 0884 9b3d 48b2 d13d 5ad0 b3bd
00000130: 37ce 9a3d 8abe fd3c 8549 c9bd f480 efbd
00000140: d6e9 183d a51a ac3d c11c c2bd bc2c ec3d
00000150: 3249 893d 0d3e a5bd 87bb bcbc a6f0 7b3d
00000160: c584 ec3d c503 5dbd d4d9 02be 44c1 4f3d
00000170: fcfa 593d 5f9c 943c 824c cf3d 9e40 6e3d
00000180: 725d 903d fac6 c6bc 55e1 ca3d ecc3 8bbc
00000190: 6a0d 25bd 9c0c 24bd fcdf 76bc 6b32 c63c
000001a0: f6d5 13bc 26ae d6bc 14d1 803c 7d69 9bbb
000001b0: ac0f e33d 92d1 c93d b4d1 2fbd 46c2 cd3d
000001c0: 01c1 1e3e acd8 e9bb da58 19bc deee 173c
000001d0: 0781 bd3d c103 d03b fa7c 193e 46c8 97bd
000001e0: 1399 b73b 56f1 683d a3ba 643c 8dd0 023d
000001f0: c6f4 43bd 8baa 42bc 245d 1fbd f293 44bd
00000200: c4d4 c53d 4e85 ee3d 4db2 80bd 77ac 4e3a
00000210: d794 b33d af1f 383d b9bc 853d aa73 55bd
00000220: e26b 7cbd c956 b13c 7227 133e 40b6 c83d
00000230: 63d9 f33b 0df4 1f3e a7d2 ab3d e95a f13d
00000240: dcf5 c23d 7bb9 8b3d b06d 8c3c 236a 183e
00000250: 91ab b63d 4bd7 ef3d b1d3 80bd 601d 04bd
00000260: 5884 823d ca2a 813d 91ae 1ebd d41a ab3d
00000270: df38 063d 5563 d9bd 27be d03d f84a 3a3c
00000280: 7691 93bd edd4 a53d 304a 97bd 904b de3d
00000290: 3700 863d 364b 64bd fc8d dcbd d70c 543d
000002a0: e187 853c 24ac cc3d 4a5c 703d 757e 863d
000002b0: 1360 d7bd d69b 9e3d 0f0b 8dbd 176e 713d
000002c0: f3d7 da3d 67ed 1b3e d4f3 5d3d 5f09 123d
000002d0: 3fad 233d 00f1 f3bb ab85 1ebd b723 a33d
000002e0: c1b1 373d 9acb 163e 7e6e fc3c 9bbe 7c3d
000002f0: 42a8 c03d 7dfe c5bc 88fe 343d 6654 1dbc
00000300: c228 1d3e 9f49 7e3d f14b c73c 9506 fb3d
00000310: 89cf 9b3d 7c9c ca3c a8c0 55bd c383 0e3d
00000320: 8c83 c0ba eca7 5ebc 009b ea3d 6c23 143e
00000330: f279 b43c 7468 79bd 4dd2 51bd ae20 cbbb
00000340: 9d8e d13d d8a3 a53d 3414 d93d 626e 993d
00000350: ef42 293d ba6b 0c3e a9c2 80bc c62a 943d
00000360: bc43 263d f07d 24bd 308f f93c 46b4 d13d
00000370: 3d3f e63d a888 a73d 60c1 1b3e 5dc8 be3c
00000380: 41aa 143e b4cc 20be 6e0e 2d3d f05c e3bd
00000390: 7ac6 6e3d b7ac 073d 05dd bdbd a154 1dbe
000003a0: 5531 b0bd 8e93 a63c 1fb9 013e ca88 01be
000003b0: 107f a9bc 0360 12be e4d2 44bd 1dc2 baba
000003c0: 8b78 bebd 4c50 5d3d 8a52 a8bd 1111 a23d
000003d0: 8a55 7fbd b365 493d 90e4 123d 13e6 01be
000003e0: 327b a3bd 6331 df3d 2a72 9a3d 1dd1 853d
000003f0: 39b2 973d 5829 683d a561 6cbd a390 223c

conv1.bias f4 [6]
-0.07157652 -0.065897875 0.102005295 -0.00790179 -0.014693351 0.13079792
00000000: b696 92bd 77f5 86bd 27e8 d03d 8276 01bc
00000010: 62bc 70bc e4ef 053e

conv2.weight f4 [6, 6, 5, 5]
0.038472217 -0.062324617 0.06573476 -0.01947509 -0.055663854 0.018375421 0.0013896439 0.004464804
0.06209807 0.013582914 0.022009453 0.06729839 -0.020452466 -0.043434817 -0.06909711 0.0008804229
0.054732077 -0.036294933 0.025189998 0.05879336 0.09887559 -0.06956734 -0.011797431 -0.0272959
-0.03465895 0.09504016 0.10672936 0.03096221 -0.014038857 -0.0025251585 0.05925802 -0.041971624
-0.01882123 0.055920776 0.075822905 0.07019235 0.096324295 0.062053084 0.052937184 0.005000737
0.031410165 -0.041583788 0.096442185 0.097162545 -0.02127056 -0.023160288 0.086439334 0.04837616
0.085329935 -0.008874646 -0.0067056003 0.07584178 -0.022852207 0.10456927 -0.045079995 0.060689762
0.00057754 -0.0030567416 0.090673484 0.040170185 0.01627334 0.065465815 0.0076026306 -0.0063312524
0.09051704 0.09993014 0.076573096 -0.04972258 0.020503674 -0.007590292 -0.028028194 0.07483216
-0.05081328 0.08905399 -0.019350536 0.08493324 0.023519097 0.018622538 0.0058765877 0.009204476
0.057384685 -0.030682862 0.040538587 0.028856175 0.07925306 0.120529845 0.023809643 0.07243544
0.03300072 0.054382026 0.0680149 -0.030817738 -0.030010756 -0.017076444 0.00061641395 -0.0025620675
-0.031193435 0.046413273 -0.050455928 -0.06568395 0.046622116 0.07423629 0.010482618 -0.09212626
-0.02902272 0.057199534 0.03083981 -0.028886702 -0.050086025 0.06251062 0.06535039 -0.04939817
0.0433136 0.016626585 -0.026240563 0.10082965 0.078810886 0.02514789 -0.0693315 0.0640904
-0.01499438 0.10333956 -0.019106044 0.077404134 -0.011766693 0.09183066 0.0046330597 0.045678806
0.021077085 -0.033496607 0.04209295 0.005173405 0.012032283 -0.0043397616 0.08569203 0.036452815
0.07852094 0.093273774 -0.034347285 0.08051309 0.04370341 -0.015734522 0.06353745 0.108916186
0.076059625 0.06920208 0.024982065 0.0081974035 -0.04346183 0.022638937 0.06485311 0.05578945
0.11309008 0.108712874 -0.005998985 0.118620016 -0.045977246 0.007596168 0.10102618 0.059575956
0.0024156212 0.045957323 -0.034341313 0.06941278 0.062800296 0.06444582 0.09677763 0.04445472
-0.022506675 0.05646172 0.08967314 0.032527503 0.0738718 0.096591435 0.12097898 -0.09024576
0.0040744934 -0.087001376 -0.02038294 -0.095042035 -0.030576503 0.016754255 0.015885321 -0.07016682
-0.0166734 0.013383845 -0.07009744 0.0029030242 0.003162443 0.026223097 0.027757863 -0.008753819
-0.066337235 -0.07045838 -0.096967585 0.025445472 0.031110952 -0.014060189 -0.007740292 -0.010207172
-0.09871134 -0.024007104 -0.068770714 -0.0774485 0.04828611 -0.09977784 -0.07844759 -0.057614066
-0.07322591 0.0138334185 0.043919194 0.06662334 -0.063143134 -0.0878052 0.026745806 -0.06014163
-0.074478365 0.007821194 -0.071877345 0.015324669 0.010459719 -0.004067396 -0.039405856 0.019854825
-0.063225895 0.10459509 0.11280656 0.06392 0.047657643 0.062769994 0.1247541 -0.03731043
0.028142244 -0.04452686 -0.041948967 0.0069514257 -0.022615401 -0.029874286 0.0051665474 0.07493616
0.13004947 0.071090646 0.04626336 -0.05259246 -0.062541276 0.12783143 0.09907258 -0.047200665
0.004378392 -0.06346081 0.09074542 0.06571433 0.017229173 0.062675275 0.047737587 0.049297746
00000000: 0b95 1d3d 1948 7fbd f29f 863d 398a 9fbc
00000010: c8ff 63bd 0d88 963c b624 b63a 7e4d 923b
00000020: 8c5a 7e3d df8a 5e3c 2b4d b43c bdd3 893d
00000030: ee8b a7bc b5e8 31bd c982 8dbd 2ecc 663a
00000040: be2e 603d ffa9 14bd 415b ce3c 4ed1 703d
00000050: 497f ca3d 5279 8ebd 034a 41bc a79b dfbc
00000060: 8bf6 0dbd 6aa4 c23d ec94 da3d 76a4 fd3c
00000070: 3c03 66bc 217d 25bb 8ab8 723d 70ea 2bbd
00000080: fb2e 9abc 2f0d 653d 0a49 9b3d 02c1 8f3d
00000090: ac45 c53d 602b 7e3d a9d4 583d 39dd a33b
000000a0: f2a7 003d c353 2abd 7b83 c53d 28fd c63d
000000b0: 993f aebc a5ba bdbc 1b07 b13d 1526 463d
000000c0: 76c1 ae3d f766 11bc a7ba dbbb ef52 9b3d
000000d0: 8d34 bbbc 6a28 d63d cda5 38bd d495 783d
000000e0: 0e66 173a 9d53 48bb 05b3 b93d 7e89 243d
000000f0: ab4f 853c f112 863d 7d1f f93b 6576 cfbb
00000100: ff60 b93d 2ca8 cc3d 5bd2 9c3d e7a9 4bbd
00000110: 52f7 a73c fcb7 f8bb 629b e5bc 9a41 993d
00000120: 9621 50bd f061 b63d 0485 9ebc 7bf1 ad3d
00000130: 1fab c03c 4b8e 983c 6490 c03b 5fce 163c
00000140: 340c 6b3d a05a fbbc ca0b 263d c963 ec3c
00000150: 6e4f a23d 5ad8 f63d 710c c33c 0859 943d
00000160: c32b 073d b0bf 5e3d 654b 8b3d 7b75 fcbc
00000170: 1ed9 f5bc e6e3 8bbc d796 213a 5ce8 27bb
00000180: 6089 ffbc d81b 3e3d e0aa 4ebd 4f85 86bd
00000190: d5f6 3e3d 3209 983d 49bf 2b3c b1ac bcbd
000001a0: 0ec1 edbc 0f4a 6a3d c5a3 fc3c cea3 ecbc
000001b0: 0127 4dbd 9105 803d 6dd6 853d bc55 4abd
000001c0: 9a69 313d 7a34 883c 73f6 d6bc c77f ce3d
000001d0: 9a67 a13d f302 ce3c acfd 8dbd d441 833d
000001e0: fdaa 75bc b1a3 d33d 4784 9cbc 0f86 9e3d
000001f0: 16c9 40bc b711 bc3d ecd0 973b b319 3b3d
00000200: daa9 ac3c bd33 09bd a869 2c3d ab85 a93b
00000210: 0d23 453c 8f34 8ebb 4e7f af3d 8c4f 153d
00000220: 96cf a03d 5206 bf3d bdaf 0cbd 0ce4 a43d
00000230: 5902 333d afe5 80bc ec1f 823d 730f df3d
00000240: 26c5 9b3d d2b9 8d3d 30a7 cc3c 674e 063c
00000250: 0805 32bd 4b75 b93c b5d1 843d 7a83 643d
00000260: c69b e73d dba4 de3d 2293 c4bb 0def f23d
00000270: a352 3cbd 47e9 f83b d0e6 ce3d eb05 743d
00000280: 664f 1e3b bf3d 3c3d 7aa9 0cbd 4a28 8e3d
00000290: 719d 803d 2cfc 833d 5a33 c63d 2716 363d
000002a0: eb5f b8bc 6844 673d 8da6 b73d 8f3b 053d
000002b0: 194a 973d bbd1 c53d d4c3 f73d c5d2 b8bd
000002c0: 5483 853b c72d b2bd 20fa a6bc 66a5 c2bd
000002d0: 937b fabc 3840 893c ef21 823c 9fb3 8fbd
000002e0: a796 88bc ea47 5b3c 3f8f 8fbd aa40 3e3b
000002f0: fd40 4f3b d2d1 d63c 7564 e33c 2e6c 0fbc
00000300: d1db 87bd 7c4c 90bd f196 c6bd 0673 d03c
00000310: 65dc fe3c b55c 66bc 47a2 fdbb fb3b 27bc
00000320: 2c29 cabd 8caa c4bc a9d7 8cbd 529d 9ebd
00000330: a8c7 453d 5358 ccbd 21a9 a0bd bafc 6bbd
00000340: 77f7 95bd 90a5 623c 9de4 333d d171 883d
00000350: 3051 81bd 36d3 b3bd 051a db3c 1257 76bd
00000360: 1d88 98bd 7724 003c 6e34 93bd 5214 7b3c
00000370: 3e5f 2b3c ca47 85bb 0968 21bd 96a6 a23c
00000380: 947c 81bd f335 d63d 2007 e73d 7de8 823d
00000390: a934 433d 8e8d 803d 147f ff3d d2d2 18bd
000003a0: 908a e63c cc61 36bd aed2 2bbd c9c8 e33b
000003b0: ef43 b9bc ebba f4bc 244c a93b 2178 993d
000003c0: b02b 053e f997 913d a67e 3d3d 316b 57bd
000003d0: a415 80bd 3ee6 023e 91e6 ca3d 7c55 41bd
000003e0: 9d78 8f3b bef7 81bd bcd8 b93d 3c95 863d
000003f0: 3224 8d3c e55b 803d 7d88 433d 6fec 493d

conv2.bias f4 [6]
-0.051374383 0.11070467 -0.0605802 -0.04272533 -0.06326435 -0.044316757
00000000: f26d 52bd 21b9 e23d f222 78bd c100 2fbd
00000010: bd90 81bd 7d85 35bd

fc1.weight f4 [64, 150]
-0.023979755 -0.04130154 -0.05426127 0.06755625 -0.004029694 -0.033661827 0.0003789146 -0.027526857
0.013314154 -0.061210185 -0.034840196 -0.08149478 0.060535476 -0.037979342 0.0532724 -0.0051859706
-0.05443756 -0.05360845 -0.039276276 -0.06430847 0.026213737 -0.08273916 0.069456995 -0.0029010538
0.0070150006 -0.04259658 -0.049565688 -0.0025595992 0.007671978 0.031055784 0.008088187 0.017927667
0.03300212 0.016450131 0.04008535 0.012355208 -0.0046762344 0.036083415 0.01691728 0.05211284
-0.05735514 -0.042237096 0.049756188 -0.07331383 0.07883099 0.016138667 -0.06209434 0.017608924
0.026099311 -0.0011369619 0.0696716 -0.035982523 0.050141275 0.031236717 0.07164231 -0.08450695
-0.076797076 -0.08042534 -0.062042847 0.012442872 -0.09320971 0.044678308 -0.009458812 -0.022381362
-0.035049092 -0.05988392 -0.06909819 -0.068998694 -0.03802106 0.0390122 0.05086436 -0.016173936
-0.08780382 0.032638334 0.035855237 0.034530267 -0.004000065 0.065226436 -0.068147436 -0.06980566
-0.029140888 0.077222124 -0.02249994 -0.006952656 0.03368702 -0.07389513 -0.08402381 0.044316817
-0.01837351 -0.040933657 0.015552123 -0.011747776 -0.079558395 -0.05453029 0.030140558 0.016500592
-0.07586448 -0.08325773 -0.085489325 0.03865099 0.06332609 -0.04979027 0.0066484376 0.0294257
-0.06390909 -0.0074664163 0.00016036796 0.03265227 0.06033597 0.013654456 0.017828275 -0.06042237
-0.07803475 -0.09445381 0.06982878 0.0016043807 0.06701028 -0.00029710063 -0.08517887 0.063211635
-0.08717669 -0.05712205 -0.034232106 -0.05427969 0.07241871 0.01284734 0.06575921 0.014865454
-0.026790991 0.05535638 -0.06633884 -0.04338532 0.044840947 0.050454013 0.020043187 -0.016402235
-0.057635654 -0.025118042 -0.042086344 0.036068313 0.0012707732 0.03477547 -0.03173599 -0.08566041
-0.0453968 0.0038984632 -0.012683942 -0.07081947 -0.077915415 0.013399463 -0.019248676 0.034099262
-0.07260543 -0.07451551 -0.04200324 -0.0053426204 -0.048014615 0.023606254 0.040756572 -0.06727968
-0.07231037 0.022732178 -0.021224976 0.04549598 -0.029949894 0.046825577 0.008443084 0.015454155
0.0086895265 -0.033173952 0.042948894 0.042234734 -0.027588814 0.012648384 0.028511353 0.10856576
0.074870385 -0.055102587 0.052209675 0.050562706 0.026208628 -0.00835715 -0.047804553 -0.01037987
0.023526415 0.058595467 0.016125932 -0.014810391 0.0059459303 0.05189961 0.114162765 -0.03777269
0.0065262252 0.0067702155 0.1140568 -0.0051617855 0.00229195 0.032391015 0.06569584 0.074569836
0.015216137 -0.07183419 -0.049362946 -0.0016434926 -0.024133857 0.04663331 -0.050868563 -0.062118404
-0.041782457 0.030535512 0.011183502 0.02988593 0.03718385 0.027635733 0.010545522 -0.06365409
0.056184962 0.052341342 -0.021453505 0.017744979 -0.036236003 -0.04312301 0.011767693 0.069465056
0.037152372 0.055658516 0.05773654 0.06561271 0.045215454 0.06650611 -0.082847424 -0.017094398
-0.057842955 0.03083287 -0.018259872 -0.06849917 -0.03871917 0.014824873 -0.004701677 0.0037411987
-0.08193678 0.044569515 -0.060626328 0.05677582 -0.0028008628 0.009331618 0.002899512 -0.018696371
-0.06806449 -0.04878256 0.058026064 0.030593315 0.017660385 -0.05179587 -0.051842224 0.026382467
00000000: 3171 c4bc ce2b 29bd 1141 5ebd ee5a 8a3d
00000010: 860b 84bb fce0 09bd 0fa9 c639 0180 e1bc
00000020: 9c23 5a3c 88b7 7abd 98b4 0ebd bce6 a6bd
00000030: 0cf4 773d 3a90 1bbd 2934 5a3d 13ef a9bb
00000040: ebf9 5ebd 8994 5bbd 29e0 20bd 29b4 83bd
00000050: 31be d63c 2673 a9bd 783f 8e3d 9b1f 3ebb
00000060: 17de e53b c079 2ebd 6405 4bbd f3be 27bb
00000070: 3765 fb3b b368 fe3c 5184 043c 0bdd 923c
00000080: 3b2d 073d 6dc2 863c 8930 243d 806d 4a3c
00000090: 193b 99bb 34cc 133d 1c96 8a3c 4674 553d
000000a0: 39ed 6abd ce00 2dbd 25cd 4b3d 9025 96bd
000000b0: 2472 a13d 3d35 843c a256 7ebd 9740 903c
000000c0: 39ce d53c 1c06 95ba fcaf 8e3d 6962 13bd
000000d0: f060 4d3d 25e4 ff3c 34b9 923d fb11 adbd
000000e0: c947 9dbd 0ab6 a4bd a420 7ebd 30dd 4b3c
000000f0: bce4 bebd 9a00 373d 22f9 1abc 1e59 b7bc
00000100: a38f 0fbd d748 75bd 5a83 8dbd 304f 8dbd
00000110: f9bb 1bbd 42cb 1f3d 2657 503d 347f 84bc
00000120: 7dd2 b3bd c6af 053d f1dc 123d 9c6f 0d3d
00000130: fa12 83bb 7095 853d e290 8bbd 45f6 8ebd
00000140: dfb8 eebc a226 9e3d cb51 b8bc 1bd3 e3bb
00000150: 67fb 093d 5456 97bd ad14 acbd 8d85 353d
00000160: 0b84 96bc 0daa 27bd 55ce 7e3c be79 40bc
00000170: 83ef a2bd 275b 5fbd 55e9 f63c 402c 873c
00000180: d65e 9bbd 0783 aabd 0715 afbd 8050 1e3d
00000190: 1cb1 813d e2f0 4bbd 23db d93b 2a0e f13c
000001a0: c5e2 82bd d7a8 f4bb 7228 2839 63be 053d
000001b0: da22 773d f0b6 5f3c 9a0c 923c 727d 77bd
000001c0: afd0 9fbd 0071 c1bd 6402 8f3d 154a d23a
000001d0: b03c 893d 2cc4 9bb9 4272 aebd 1a75 813d
000001e0: b189 b2bd d0f8 69bd f736 0cbd 6154 5ebd
000001f0: 4350 943d a67d 523c c4ac 863d 3c8e 733c
00000200: c878 dbbc 5fbd 623d a8dc 87bd ceb4 31bd
00000210: 24ab 373d dea8 4e3d 9c31 a43c fb5d 86bc
00000220: 5d13 6cbd 5ac4 cdbc bb62 2cbd 5ebc 133d
00000230: 1390 a63a b970 0e3d 99fd 01bd ba6e afbd
00000240: fff1 39bd 5c7d 7f3b 4fd0 4fbc cc09 91bd
00000250: 1e92 9fbd 6c89 5b3c 66af 9dbc abab 0b3d
00000260: 28b2 94bd 969b 98bd 970b 2cbd 2611 afbb
00000270: f9aa 44bd e761 c13c 5df0 263d eec9 89bd
00000280: 7617 94bd d538 ba3c 00e0 adbc fe59 3a3d
00000290: 7b59 f5bc 2dcc 3f3d dc54 0a3c 6d33 7d3c
000002a0: 845e 0e3c 69e1 07bd 2eeb 2f3d 54fe 2c3d
000002b0: f001 e2bc 2b3b 4f3c a490 e93c ba57 de3d
000002c0: a555 993d 40b3 61bd d0d9 553d d71a 4f3d
000002d0: 7ab3 d63c 6dec 08bc b5ce 43bd 5510 2abc
000002e0: 78ba c03c cd01 703d 881a 843c 48a7 72bc
000002f0: 14d6 c23b af94 543d 2bce e93d 89b7 1abd
00000300: f2d9 d53b afd8 dd3b 9d96 e93d 3224 a9bb
00000310: 8a34 163b 71ac 043d 8a8b 863d 12b8 983d
00000320: 1b4d 793c ce1d 93bd cd30 4abd 766a d7ba
00000330: 5eb4 c5bc 9202 3f3d 8e5b 50bd de6f 7ebd
00000340: 1524 2bbd 9c25 fa3c 023b 373c 56d3 f43c
00000350: 184e 183d 5564 e23c 20c7 2c3c 135d 82bd
00000360: 3422 663d e063 563d 43bf afbc eb5d 913c
00000370: 346c 14bd c1a1 30bd 48cd 403c b243 8e3d
00000380: 162d 183d 2ffa 633d 267d 6c3d f55f 863d
00000390: d733 393d 5b34 883d e9ab a9bd 8d09 8cbc
000003a0: bcec 6cbd 3795 fc3c ba95 95bc 4b49 8cbd
000003b0: fe97 1ebd 06e4 723c 8610 9abb e62e 753b
000003c0: 78ce a7bd 868e 363d 5053 78bd c38d 683d
000003d0: ae8e 37bb a5e3 183c bd05 3e3b 2229 99bc
000003e0: 6565 8bbd 39d0 47bd bdac 6d3d d59e fa3c
000003f0: 83ac 903c e827 54bd 8358 54bd 0b20 d83c

fc1.bias f4 [64]
-0.085944295 0.0841792 0.03721452 0.053988613 -0.022369038 0.03264631 -0.1366022 -0.043246713
0.12555538 0.047795717 -0.11702127 0.014148719 -0.08428895 0.12795676 0.10272457 -0.013909231
-0.035874557 -0.05496813 0.03557067 -0.044076085 0.120909 0.06589501 -0.055157993 -0.0138386395
0.113458306 0.123608135 0.065607525 -0.068360135 0.07402234 0.071609445 0.13562262 -0.0076840715
0.115603365 -0.045445833 -0.05809858 -0.020518562 0.06985431 -0.0019535806 -0.009569937 0.08160215
-0.09092118 0.07198206 0.06681388 0.008509596 -0.061310384 -0.051716145 -0.08221268 -0.06946978
-0.07769288 0.005634405 -0.07493568 -0.011771587 0.08587572 0.14160185 -0.0076229977 0.01722644
0.020148018 0.033730995 0.06833253 0.12159382 0.095862426 -0.06459547 -0.06659096 -0.0457921
00000000: 9003 b0bd 2566 ac3d 416e 183d 2a23 5d3d
00000010: 463f b7bc 23b8 053d 72e1 0bbe 7723 31bd
00000020: 9791 003e 71c5 433d d9a8 efbd 07d0 673c
00000030: af9f acbd 1907 033e 4261 d23d 8be3 63bc
00000040: 33f1 12bd 4326 61bd 8db2 113d 2089 34bd
00000050: 239f f73d f7f3 863d 59ed 61bd 76bb 62bc
00000060: d45c e83d 4326 fd3d 3d5d 863d 6600 8cbd
00000070: 0699 973d f9a7 923d a8e0 0a3e aaca fbbb
00000080: 75c1 ec3d 6925 3abd c7f8 6dbd 8b16 a8bc
00000090: c70f 8f3d a507 00bb 3acb 1cbc 071f a73d
000000a0: e234 babd 556b 933d b7d5 883d d56b 0b3c
000000b0: 9920 7bbd 4fd4 53bd 1f5f a8bd 2c46 8ebd
000000c0: 721d 9fbd d1a0 b83b e177 99bd 9ddd 40bc
000000d0: 9cdf af3d 1300 113e 57ca f9bb 771e 8d3c
000000e0: 750d a53c 8329 0a3d edf1 8b3d 2e06 f93d
000000f0: 8553 c43d a14a 84bd d760 88bd 7f90 3bbd

fc2.weight f4 [8, 64]
-0.09870205 0.02552244 -0.06580905 -0.03772511 0.00938162 0.12158473 0.07002102 -0.055293735
-0.026331684 -0.10722001 -0.030514086 -0.065266095 -0.09026686 -0.11985951 0.11469195 0.104150906
-0.045589432 -0.09307587 0.026256345 -0.04283075 0.06256984 0.051132012 -0.05123407 -0.045679636
-0.15834565 -0.0426445 0.00065921596 0.034211077 -0.149139 -0.0532339 0.10094159 0.057130665
-0.14421462 0.06609464 -0.045078438 0.091017015 -0.017377121 0.111186236 -0.06744728 -0.10023699
0.023201533 -0.06574342 0.013589607 -0.088179335 0.011441513 0.12116167 -0.084391825 0.0785323
0.04541205 -0.07951365 -0.09977079 -0.08429815 -0.03765126 0.038153995 0.11939002 -0.10322502
0.08251073 -0.0925286 -0.14056915 0.068771 -0.09088622 0.0045600245 -0.01976353 0.1645256
0.060729716 -0.079321094 0.08392334 -0.058734126 0.02140195 -0.11005262 -0.082448594 -0.05152886
0.14898214 0.0155105805 -0.06402259 -0.07863703 0.10536549 0.10739906 0.08263351 -0.007863535
0.027695956 -0.13003749 0.022385005 -0.05635247 0.051664025 0.04950287 0.09261826 0.017203305
-0.03926377 0.020611243 -0.05305134 -0.12964107 -0.06072521 0.044190314 0.03804342 -0.042942654
-0.015689706 2.5631816e-05 -0.09160119 -0.09751519 0.09737407 -0.046622936 -0.0013390493 -0.00916689
0.051060557 0.0078076976 0.03943501 -0.012267865 0.09147608 -0.0056038094 0.0358983 -0.07119255
-0.08426423 -0.0008972143 -0.100234106 -0.12639394 -0.004769873 -0.036319993 -0.047345858 0.11735312
0.08490469 0.13666548 -0.010510808 0.019229682 -0.033519775 -0.1009687 -0.114406675 0.039643068
-0.1293806 -0.13926806 -0.04580596 -0.013752982 -0.090123 -0.04153862 0.04533155 -0.020116266
0.08992659 -0.026097758 -0.06121202 0.07271123 0.005195439 0.026524689 0.060322177 0.0823148
-0.051968366 -0.090858474 -0.11077497 0.030930562 -0.12092137 -0.10288661 0.10349563 -0.022028804
0.070811264 0.051229276 0.028374098 0.11774619 -0.10270127 -0.093214706 -0.109984435 0.020306513
-0.02519278 -0.09637155 0.11815332 0.06494365 -0.05013481 0.097189285 0.09790932 -0.006989345
-0.054068204 -0.09876674 -0.04914998 -0.07957302 0.12860914 0.060312904 0.07401422 0.006249815
0.072532326 -0.024323702 -0.023676507 0.0344228 -0.0022423526 0.07727879 0.037073724 -0.09581744
-0.003932411 -0.0025853768 -0.13017684 0.06188114 0.038929954 -0.11703104 0.0040257126 0.068799734
-0.1259474 -0.11550278 0.07010187 0.033910107 0.14072503 0.06080067 0.1843696 0.033343825
0.11387071 0.06284099 0.0894963 0.08486318 0.05812258 -0.079219565 -0.048386734 0.08158916
-0.058466066 0.08376023 0.124603055 0.13267082 0.053469937 -0.07242094 0.04796971 -0.036956135
-0.20583536 0.040639747 0.044227265 -0.1191446 -0.15754688 0.07710535 -0.021272756 0.0026917155
-0.13439249 -0.039649274 0.007989193 0.044561364 0.11224515 0.09858471 -0.015772948 -0.010166938
0.16084225 -0.03146479 -0.03864089 -0.06725529 0.1989222 0.13689059 -0.012453219 -0.063118555
0.0431089 0.06643336 -0.066577934 -0.07548785 0.009796606 -0.09484786 -0.058552172 -0.008460192
0.09407989 -0.04019027 -0.15444292 -0.14463525 0.11310685 0.09773466 -0.055961818 0.18837567
00000000: 4d24 cabd 7014 d13c e5c6 86bd a585 1abd
00000010: 5eb5 193c 6a01 f93d 2e67 8f3d af7b 62bd
00000020: 8bb5 d7bc 2a96 dbbd adf8 f9bc 3baa 85bd
00000030: d5dd b8bd e778 f5bd 9de3 ea3d 124d d53d
00000040: fcbb 3abd 909e bebd 8c17 d73c 4c6f 2fbd
00000050: 9e24 803d cd6f 513d d1da 51bd 921a 3bbd
00000060: 5d25 22be 00ac 2ebd 3ccf 2c3a ea20 0c3d
00000070: e5b7 18be ca0b 5abd 77ba ce3d d801 6a3d
00000080: ffac 13be a05c 873d 2ba4 38bd 2167 ba3d
00000090: 775a 8ebc 9cb5 e33d cd21 8abd 0d49 cdbd
000000a0: 2411 be3c 7ca4 86bd f1a6 5e3c 5e97 b4bd
000000b0: 2f75 3b3c 9c23 f83d 9fd5 acbd 8bd5 a03d
000000c0: fc01 3a3d 0dd8 a2bd a154 ccbd 82a4 acbd
000000d0: 3538 1abd 5d47 1c3d c182 f43d a467 d3bd
000000e0: 63fb a83d a27f bdbd 5cf1 0fbe cfd7 8c3d
000000f0: 8e22 babd 426c 953b 20e7 a1bc 6679 283e
00000100: b9bf 783d 1973 a2bd 00e0 ab3d 3293 70bd
00000110: 2453 af3c 4563 e1bd cfda a8bd ed0f 53bd
00000120: c68e 183e 1720 7e3c 471e 83bd 740c a1bd
00000130: ddc9 d73d 0af4 db3d c23b a93d 0ed6 00bc
00000140: a1e2 e23c 8c28 05be c260 b73c d9d1 66bd
00000150: a89d 533d 85c3 4a3d a4ae bd3d f2ed 8c3c
00000160: 0cd3 20bd e9d8 a83c 5d4c 59bd a1c0 04be
00000170: ffba 78bd e700 353d 6bd3 1b3d a3e4 2fbd
00000180: b387 80bc e803 d737 6899 bbbd 0bb6 c7bd
00000190: 0e6c c73d b1f7 3ebd 0a83 afba b930 16bc
000001a0: e024 513d b7d7 ff3b 9b86 213d 28ff 48bc
000001b0: d057 bb3d 29a0 b7bb 190a 133d 66cd 91bd
000001c0: ba92 acbd 0833 6bba 8a47 cdbd 6a6d 01be
000001d0: 984c 9cbb 46c4 14bd bbed 41bd d556 f03d
000001e0: 83e2 ad3d 09f2 0b3e 8635 2cbc 9187 9d3c
000001f0: 084c 09bd aec8 cebd 0c4e eabd c560 223d
00000200: 597c 04be 499c 0ebe 089f 3bbd 3054 61bc
00000210: 6892 b8bd 6624 2abd 93ad 393d deca a4bc
00000220: 6f2b b83d f7ca d5bc 75b9 7abd a0e9 943d
00000230: 803e aa3b 4e4a d93c 6314 773d a994 a83d
00000240: c8dc 54bd 0214 babd fddd e2bd 1762 fd3c
00000250: a0a5 f7bd 37b6 d2bd 84f5 d33d c075 b4bc
00000260: 7f05 913d cad5 513d cc70 e83c ea24 f13d
00000270: 0b55 d2bd 5ae7 bebd 853f e1bd d859 a63c
00000280: 1761 cebc 725e c5bd 5efa f13d 2d01 853d
00000290: 295a 4dbd 2d0b c73d ae84 c83d e006 e5bb
000002a0: 9f76 5dbd 3746 cabd 7d51 49bd 2ef7 a2bd
000002b0: 1db2 033e aa0a 773d c494 973d 40cb cc3b
000002c0: d48b 943d 8042 c7bc 3cf5 c1bc ecfe 0c3d
000002d0: 6ff4 12bb 5844 9e3d 9eda 173d ef3b c4bd
000002e0: 74db 80bb 6d6f 29bb 144d 05be 1477 7d3d
000002f0: 0475 1f3d f8ad efbd 20ea 833b e0e6 8c3d
00000300: 5bf8 00be b98c ecbd 9291 8f3d 53e5 0a3d
00000310: 391a 103e 200a 793d 62cb 3c3e 8993 083d
00000320: 0c35 e93d c7b2 803d d649 b73d bfcc ad3d
00000330: f111 6e3d de3d a2bd 2b31 46bd 3818 a73d
00000340: 1d7a 6fbd 7c8a ab3d e32f ff3d dcda 073e
00000350: 4b03 5b3d 6e51 94bd e37b 443d 515f 17bd
00000360: 81c6 52be dd75 263d a627 353d 1602 f4bd
00000370: f853 21be 69e9 9d3d 3444 aebc 7e67 303b
00000380: 2f9e 09be 4767 22bd 1be5 023c fa85 363d
00000390: c9e0 e53d c8e6 c93d 4536 81bc 3b93 26bc
000003a0: d5b3 243e 39e1 00bd e945 1ebd 24bd 89bd
000003b0: 43b2 4b3e 0c2d 0c3e 9608 4cbc 4d44 81bd
000003c0: f592 303d 370e 883d 035a 88bd 6099 9abd
000003d0: f281 203c 983f c2bd 67d4 6fbd 9e9c 0abc
000003e0: f5ac c03d 8d9e 24bd 4926 1ebe 431b 14be
000003f0: 90a4 e73d 1c29 c83d 3838 65bd 8de5 403e

fc2.bias f4 [8]
0.042697746 0.13185525 -0.06769462 -0.022579672 -0.0012871568 0.14532739 -0.06687962 0.020879205
00000000: d5e3 2e3d 1005 073e 7aa3 8abd 01f9 b8bc
00000010: d1b5 a8ba b4d0 143e 2ff8 88bd de0a ab3c

fc3.weight f4 [4, 8]
-0.14163366 0.34915662 -0.24340023 -0.3455766 0.14919776 0.39389214 0.19883953 0.004306223
0.17620023 0.05749744 0.17467165 0.09343362 0.11910966 -0.14699093 -0.29246643 0.35652518
0.07351607 -0.20536314 -0.24784401 -0.24757923 0.10976754 0.09355383 -0.095426306 -0.36262673
0.022037774 0.2397095 -0.0026501198 0.19588545 -0.29218683 -0.23350418 0.23481952 -0.33911598
00000000: 6a08 11be a8c4 b23e e93d 79be 6bef b0be
00000010: 4cc7 183e 3bac c93e 979c 4b3e 371b 8d3b
00000020: d56d 343e 7082 6b3d 20dd 323e 205a bf3d
00000030: c4ef f33d ca84 16be 29be 95be 788a b63e
00000040: 988f 963d b74a 52be d2ca 7dbe 6985 7dbe
00000050: cecd e03d 2799 bf3d de6e c3bd 36aa b9be
00000060: 9088 b43c 6876 753e a2ad 2dbb 3296 483e
00000070: 8399 95be b81b 6fbe 8774 703e 9ca0 adbe

fc3.bias f4 [4]
0.33278328 0.28539878 -0.26058704 -0.017807523
00000000: 9262 aa3e ca1f 923e aa6b 85be 15e1 91bc
